weights/final.pth (torch_old, 120511 bytes, 38 tensors)

first_layer.conv.weight f4 [24, 3, 3, 3]
0	0x3dba5e33	0.09099998
1	0x3f57d54f	0.8430986
2	0x3f31e628	0.69491816
3	0xbf818d7d	-1.0121304
4	0xbd9f2e79	-0.07772536
5	0xbe38663b	-0.18007748
6	0xbeb31621	-0.3497782
7	0x3dc234ca	0.09482725
8	0xbe0ee9f1	-0.13956429
9	0xbdc9fc18	-0.09862536
10	0x3f33b81e	0.70202816
11	0x3f220143	0.63283175
12	0xbf479814	-0.7796643
13	0xbe53637a	-0.20643416
14	0x3cc624bf	0.024187444
15	0xbf1b3107	-0.60621685
16	0x3e3f9d04	0.1871224
17	0xbdbb9e29	-0.09161026
18	0xbdb80f40	-0.08987284
19	0x3f4f1d4c	0.8090408
20	0x3f284845	0.65735275
21	0xbf8a315e	-1.0796316
22	0xbe75c674	-0.24001485
23	0xbc776212	-0.015099065
24	0xbec50188	-0.3847773
25	0xbe0636b8	-0.13106811
26	0xbdf12681	-0.11774922
27	0xbead389b	-0.3383225
28	0xbf69edf8	-0.91378736
29	0xbf4f845b	-0.81061333
30	0x3e3f7cb6	0.18699917
31	0xbe5ecb0c	-0.21757144
32	0xbe098810	-0.1343081
33	0x3f48e831	0.78479296
34	0x3f3ba7ea	0.7330309
35	0x3eeb2e0c	0.45933568
36	0xbef8c214	-0.4858557
37	0xbf72dbc4	-0.94866586
38	0xbf1fd925	-0.6244071
39	0x3ea25909	0.31708553
40	0xbdca81e3	-0.09888055
41	0xbe1819ad	-0.14853545
42	0x3f80a44e	1.0050142
43	0x3f17269f	0.59043306
44	0x3ea62aa5	0.3245441
45	0xbf0348d7	-0.5128302
46	0xbf573701	-0.84068304
47	0xbf4fd02f	-0.8117704
48	0x3ebb6b40	0.36605263
49	0xbbf92c2c	-0.0076041427
50	0xbe063046	-0.13104352
51	0x3f747fa1	0.95507246
52	0x3f2924a5	0.6607154
53	0x3f0e5951	0.55605036
54	0x3e98dd10	0.29856157
55	0x3f06cbb4	0.52654576
56	0x3cc787fb	0.024356833
57	0xbb0ff270	-0.0021964572
58	0x3ece9a22	0.4035197
59	0xbe9285ad	-0.28617612
60	0x3d474de5	0.04865827
61	0x3d804c54	0.062645584
62	0xbeec5055	-0.46155038
63	0x3ec9ae27	0.3939068
64	0x3e656c08	0.22404492
65	0xbd20ad1a	-0.039227583
66	0x3e8a5cb4	0.27023852
67	0x3edb110b	0.4278644
68	0xbea3ee5a	-0.32017785
69	0x3d93fe55	0.07226244
70	0x3d52a9d2	0.051431485
71	0xbf5018f7	-0.81288093
72	0x3ec23546	0.3793127
73	0x3eaa5bc1	0.33273128
74	0xbea01ab9	-0.31270388
75	0x3e0a8edd	0.1353106
76	0x3e0bc12e	0.13647911
77	0xbed5ea7e	-0.41780466
78	0xbe31bd94	-0.17357475
79	0xbe1e98a7	-0.1548792
80	0xbf2c29f4	-0.67251515
81	0x3f3535d0	0.70785236
82	0xbc9feb9d	-0.019521529
83	0x3e4c7429	0.19966187
84	0x3e5e2bd3	0.21696405
85	0xbf0e5825	-0.5560325
86	0xbf13e0e9	-0.5776506
87	0x3e298a71	0.16556717
88	0xbecbd693	-0.39812145
89	0xbd81f3d8	-0.06345338
90	0x3f0bb9a3	0.54580134
91	0x3e06035d	0.1308722
92	0x3eb038e2	0.34418398
93	0x3e935203	0.28773507
94	0xbf6a88b1	-0.91614825
95	0xbed2c366	-0.41164702
96	0x3ebab461	0.36465743
97	0xbe7d96a5	-0.24764498
98	0xbe30fc46	-0.17283735
99	0x3f372418	0.7153945
100	0xbc96e0f5	-0.018417815
101	0x3eb3fe57	0.35154983
102	0x3e31b16e	0.1735284
103	0xbf3ed5d9	-0.74545056
104	0xbf1a880f	-0.6036386
105	0x3ee70189	0.4511836
106	0xbce0069f	-0.027346907
107	0xbec90b21	-0.39266303
108	0xbf1d9b2b	-0.6156489
109	0xbef139b4	-0.47114336
110	0xbf17a51e	-0.59236324
111	0xbe14e530	-0.14540553
112	0x3dabd5fc	0.08390424
113	0xbda2d8ca	-0.079515055
114	0x3e79a738	0.24380195
115	0x3f1bed16	0.6090864
116	0x3f0ac11b	0.54200906
117	0xbf0e82f1	-0.5566855
118	0xbec7f4eb	-0.39054045
119	0xbf215b66	-0.6303009
120	0xbdbd689a	-0.09248467
121	0x3d442baa	0.047893204
122	0x3e22db9e	0.1590409
123	0x3e752907	0.23941432
124	0x3f1fdefa	0.6244961
125	0x3ebb4897	0.3657882
126	0xbec9d754	-0.39422095
127	0xbf05fac9	-0.5233579
128	0xbef78a44	-0.48347676
129	0xbe86eece	-0.2635407
130	0x3dd077c7	0.10179096
131	0xbd0f5f98	-0.035003275
132	0x3eb76859	0.35821798
133	0x3f030ed7	0.5119452
134	0x3f26653b	0.64998215
135	0x3dc70edf	0.09719633
136	0xbea9a670	-0.33134794
137	0x3e13c66d	0.14431162
138	0xbe948fb3	-0.29015884
139	0xbe7d5f6e	-0.24743435
140	0xbe1838a1	-0.14865352
141	0xbe85e848	-0.2615378
142	0x3e058ae6	0.13041267
143	0xbe57de1c	-0.21080822
144	0x3db7ecd4	0.08980718
145	0xbea643f2	-0.32473713
146	0xbe442f83	-0.1915875
147	0xbd637361	-0.055529956
148	0xbe92b8ef	-0.28656718
149	0x3d99fa0b	0.07518395
150	0xbcfb480d	-0.030674005
151	0xbe4bb318	-0.19892538
152	0xbe152dd2	-0.1456826
153	0xbd09858b	-0.033574622
154	0xbe8b82f9	-0.27248362
155	0x3e1e8a73	0.15482502
156	0xbe8ee031	-0.2790542
157	0xbecf563c	-0.4049548
158	0xbccc9a8c	-0.024976037
159	0xbdfd5adc	-0.12370846
160	0x3d49212f	0.049103912
161	0xbe37ea3a	-0.17960444
162	0xbee83bf9	-0.45358256
163	0x3f284669	0.6573244
164	0xbea5eb3f	-0.3240604
165	0xbde6b66a	-0.112652615
166	0x3fa934a5	1.3219191
167	0xbe215b1e	-0.15757415
168	0xbf291988	-0.6605458
169	0x3f306fdf	0.689207
170	0xbeb18c64	-0.34677422
171	0xbf174b5b	-0.5909936
172	0x3ee02e8a	0.43785506
173	0xbef05934	-0.46943057
174	0xbe7e45d7	-0.2483133
175	0x3fa18f19	1.2621795
176	0xbed1a0d0	-0.40943003
177	0xbf3ab4d5	-0.7293218
178	0x3f4c5e61	0.7983151
179	0xbf1c9dc8	-0.61178255
180	0xbf0ee640	-0.55820084
181	0x3f117337	0.5681643
182	0xbf14130c	-0.57841563
183	0xbe1e5080	-0.15460396
184	0x3fa48fd5	1.2856394
185	0xbe1c33d5	-0.15254147
186	0xbf0b0306	-0.5430149
187	0x3f165803	0.58728045
188	0xbf15eee1	-0.58567625
189	0xbe00c748	-0.1257602
190	0xbd2e7c75	-0.04259916
191	0x3e8765ee	0.26444954
192	0xbe5dd606	-0.21663675
193	0xbf3e48ef	-0.7433004
194	0xbe68addb	-0.2272257
195	0xbdb72961	-0.08943439
196	0xbed3a0ec	-0.4133371
197	0x3b17d71f	0.0023168994
198	0x3e5aab64	0.21354443
199	0xbe0fe094	-0.14050514
200	0x3e492832	0.1964424
201	0xbe129586	-0.14314851
202	0xbf361439	-0.7112461
203	0x3db3ad5d	0.08773301
204	0x3b69375c	0.0035585975
205	0xbedcbd2e	-0.43113083
206	0x3eadc14c	0.33936536
207	0x3e4f11ed	0.20221682
208	0xbd80cceb	-0.06289085
209	0x3d9756b5	0.07389585
210	0xbe79e102	-0.2440224
211	0xbef0854f	-0.46976706
212	0xbe8a67b5	-0.27032247
213	0xbde75be7	-0.11296826
214	0xbecabf44	-0.3959905
215	0xbab57942	-0.0013845342
216	0x3f3b579b	0.7318055
217	0xbe16a543	-0.1471148
218	0xbf07aa98	-0.5299468
219	0x3f242ed5	0.6413396
220	0xbdaee2b0	-0.08539331
221	0xbf39bab4	-0.7255051
222	0x3f051844	0.5199015
223	0x3df67057	0.12033146
224	0xbf1a1070	-0.6018133
225	0x3efab252	0.48964173
226	0xbe122240	-0.14270878
227	0xbf2cecd6	-0.6754888
228	0x3f614f41	0.88011557
229	0xbde4c8d5	-0.11171118
230	0xbf4a83a1	-0.791071
231	0x3f4a786c	0.7909
232	0xbc1e9c93	-0.009680885
233	0xbeebb860	-0.46039104
234	0x3f0c1725	0.54722816
235	0x3e0beead	0.13665266
236	0xbf227249	-0.63455635
237	0x3f4f9512	0.8108684
238	0xbd8bb31a	-0.0682127
239	0xbf3af378	-0.73027754
240	0x3f2f8f2f	0.68577856
241	0xbde5abd6	-0.11214416
242	0xbf282e8d	-0.6569603
243	0x3de1a05f	0.110169165
244	0xbe845b5c	-0.25850952
245	0x3f439766	0.7640289
246	0xbe3025d2	-0.17201927
247	0xbf083bb2	-0.5321609
248	0xbd070483	-0.032963287
249	0xbf07ef16	-0.5309919
250	0xbf14896a	-0.5802218
251	0x3ec3d5cd	0.38249055
252	0x3ef023aa	0.4690221
253	0xbd40e4d6	-0.047093235
254	0x3f008ef2	0.5021812
255	0xbe0b1b65	-0.13584669

first_layer.conv.bias f4 [24]
0	0x3da0ed1b	0.07857724
1	0x3d1e21b9	0.03860638
2	0xbe3572d1	-0.1771958
3	0x3c710c06	0.014712339
4	0x3e62b3f0	0.22138953
5	0x3e92e805	0.28692642
6	0x3ca1193b	0.019665351
7	0x3efbce78	0.4918096
8	0x3dd43ab7	0.103627615
9	0x3dd6e9be	0.104938015
10	0x3e2d91a2	0.16950086
11	0x3d8b5b81	0.06804562
12	0x3e5d5708	0.21615231
13	0x3ef141af	0.47120425
14	0x3d39f1e3	0.045396697
15	0x3d8b3d4e	0.06798802
16	0x3e0d0916	0.13772997
17	0x3d6716f4	0.056418374
18	0xbd4969ab	-0.04917304
19	0x3d1d4b0b	0.038401645
20	0xbea1c386	-0.31594485
21	0x3df83086	0.1211863
22	0x3d838837	0.06422465
23	0xbe00717d	-0.12543292

first_layer.conv_abn.bn.weight f4 [24]
0	0x3f5df2a6	0.8669838
1	0x3f9d1b1b	1.2273897
2	0x3fb6cd2f	1.4281367
3	0x3f505399	0.8137756
4	0x3fb5a55a	1.4191086
5	0x3e3d8890	0.18509126
6	0x3fcb9c61	1.5907098
7	0xbe935988	-0.28779244
8	0x3ff2d8ba	1.897239
9	0x3f49dc5f	0.78851885
10	0x3e6719ac	0.22568387
11	0x3fc95ac3	1.5730823
12	0x3f9e577f	1.2370452
13	0x3e5f6f33	0.21819763
14	0x3f30d6db	0.69077843
15	0x3f8fce9a	1.1234925
16	0x3fbd0405	1.4766852
17	0x3fb4aa7b	1.4114527
18	0x3f76e81e	0.9644793
19	0x3fc1b6a1	1.5133859
20	0x4007d3f3	2.1223114
21	0x401350a5	2.3017972
22	0x3f8e62f5	1.1123949
23	0x3f9419ec	1.1570411

first_layer.conv_abn.bn.bias f4 [24]
0	0xbe5bcdaf	-0.21465181
1	0xbe6cbe83	-0.2311955
2	0x3ad56abe	0.0016282422
3	0xbe916c63	-0.28403005
4	0xbd949fc7	-0.072570376
5	0xbe652513	-0.22377424
6	0xbd55510d	-0.05207925
7	0xbabd2751	-0.0014431273
8	0xbe7bf6c5	-0.24605854
9	0xbe70a997	-0.23502193
10	0xbe9311d8	-0.2872455
11	0xbec7fea0	-0.3906145
12	0xbd3c000f	-0.045898493
13	0xbe39cf1f	-0.18145417
14	0xbec36759	-0.38164786
15	0xbe04dc60	-0.12974691
16	0xbe85085c	-0.2598294
17	0x3d320d2a	0.043469585
18	0x3c3aab20	0.011393338
19	0xbe8f6493	-0.2800642
20	0xbe8ae78e	-0.27129787
21	0xbe467ab7	-0.1938275
22	0xbe3e8165	-0.18604048
23	0xbec7744c	-0.38955915

first_layer.conv_abn.bn.running_mean f4 [24]
0	0xbd83208a	-0.06402691
1	0xbbe069d0	-0.0068485513
2	0xbd1adfba	-0.03781102
3	0xbd3c10f1	-0.045914594
4	0x3c4db684	0.012555722
5	0xbe7e8cd9	-0.24858417
6	0xbc8598a5	-0.016308138
7	0xbe667fa5	-0.2250963
8	0x3cf1e934	0.029530145
9	0xbd7d2d06	-0.061810516
10	0xbe1547b6	-0.14578137
11	0xbbc50e52	-0.00601367
12	0xbd26f6c7	-0.04076269
13	0xbf76b4c8	-0.963696
14	0xbd4e4086	-0.050354503
15	0xbe232003	-0.1593018
16	0xbd3a9e37	-0.04556104
17	0x3c0aa735	0.008462717
18	0xbe1028b2	-0.14078024
19	0x3b85eaba	0.0040868195
20	0xbebc0671	-0.36723664
21	0x3d3df3d5	0.046375114
22	0xbdd8ff39	-0.10595555
23	0xbe86ff70	-0.26366758

first_layer.conv_abn.bn.running_var f4 [24]
0	0x3f04e366	0.5190948
1	0x3f09e630	0.53866863
2	0x3f007702	0.5018159
3	0x3f01293a	0.5045353
4	0x3f0459c9	0.516995
5	0x3f14c70b	0.58116215
6	0x3f01ff3e	0.50780094
7	0x3f1f6c0f	0.6227426
8	0x3f07b091	0.53003794
9	0x3f02fb4d	0.51164705
10	0x3f088697	0.5333037
11	0x3eff147f	0.49820325
12	0x3f03157f	0.51204675
13	0x3faddbfd	1.358276
14	0x3f01fc17	0.50775284
15	0x3f061dcd	0.5238922
16	0x3f087f63	0.53319377
17	0x3f058dfd	0.5216978
18	0x3f066c10	0.5250864
19	0x3f011e7e	0.5043715
20	0x3f0c60f8	0.5483546
21	0x3f05feda	0.52342
22	0x3f09550c	0.53645396
23	0x3f0ea4b0	0.55720043

intermediate_layers.0.conv.weight f4 [24, 24, 3, 3]
0	0xbe999cf0	-0.30002546
1	0xbefb4580	-0.49076462
2	0xbe5e8076	-0.21728691
3	0xbf735b23	-0.9506094
4	0xbfae5743	-1.362038
5	0xbeda242c	-0.42605722
6	0x3cc2bbff	0.023771284
7	0xbe32eb88	-0.1747266
8	0x3f33c61a	0.70224154
9	0xbe9baf85	-0.30407348
10	0xbe7c80e5	-0.24658544
11	0xbf290091	-0.6601649
12	0x3f5dc842	0.86633694
13	0x3ef712c0	0.48256493
14	0xbe10ea74	-0.14151937
15	0x3e8c54dc	0.27408493
16	0xbd011191	-0.031510893
17	0xbe058270	-0.13038039
18	0xbf2c94b0	-0.6741438
19	0xbe845d04	-0.25852215
20	0x3c8a1731	0.016856762
21	0xbe167b25	-0.14695413
22	0x3ec20e68	0.37901616
23	0x3e6a4877	0.22879206
24	0x3d993244	0.074802905
25	0x3eaf8f85	0.34289184
26	0xbe4ed3d9	-0.20198001
27	0xbe8a4d71	-0.27012208
28	0xbda9041c	-0.08252737
29	0xbeb2628e	-0.34840816
30	0xbf4e0acf	-0.8048524
31	0xbf1c3bbb	-0.6102864
32	0xbf11be8c	-0.56931376
33	0x3f24bd02	0.64350903
34	0x3e4c91c3	0.19977479
35	0x3e8769c6	0.26447886
36	0x3f14af61	0.58080107
37	0x3f4477f3	0.7674553
38	0x3e0773dc	0.1322779
39	0x3f2a447c	0.6651075
40	0x3f40296c	0.75063205
41	0xbd9df32e	-0.077123985
42	0x3e81e6da	0.25371438
43	0xbd8a6ec6	-0.067594096
44	0xbf452f9e	-0.77025783
45	0x3f8f6517	1.1202725
46	0x3f0a69bf	0.54067606
47	0x3e8c4f9d	0.2740449
48	0x3c734ae9	0.014849403
49	0xbf0fa222	-0.5610677
50	0xbeb00b42	-0.3438359
51	0xbe52fa81	-0.20603372
52	0xbf17ab95	-0.5924619
53	0x3cb5bd81	0.022185089
54	0xbd6c6f09	-0.05772308
55	0xbd410823	-0.0471269
56	0x3eda3dcb	0.4262527
57	0x3eb25500	0.34830475
58	0x3e058f41	0.13042928
59	0x3edd2fd1	0.43200544
60	0x3e8126c8	0.252249
61	0x3b61b8d1	0.0034442435
62	0x3dce57da	0.1007535
63	0x3f5e1399	0.86748654
64	0x3f0c2c34	0.5475495
65	0x3e335bf1	0.17515542
66	0xbe81ca33	-0.25349578
67	0xbf32ac91	-0.69794565
68	0xbf01c454	-0.506902
69	0xbe831868	-0.25604558
70	0xbe9a5fa3	-0.3015109
71	0x3e212081	0.15735056
72	0xbe58312e	-0.2111251
73	0xbee6c194	-0.45069563
74	0x3e82a1a4	0.25513947
75	0x3e0ac564	0.13551861
76	0xbe00b378	-0.12568462
77	0x3e2ade2d	0.16686316
78	0x3e858ef7	0.26085636
79	0x3e945311	0.28969625
80	0x3de93299	0.11386604
81	0xbd21b62a	-0.039480366
82	0x3ed2965c	0.4113034
83	0xbe0d71f4	-0.13813001
84	0xbf4a79e9	-0.7909227
85	0xbee21f4a	-0.44164497
86	0xbef4780a	-0.47747833
87	0xbe238057	-0.15966927
88	0x3f24d6a8	0.6439004
89	0x3f011033	0.50415343
90	0x3f4648f1	0.7745505
91	0x3ef25303	0.47328958
92	0x3da301f4	0.07959357
93	0x3ccb0909	0.024784582
94	0xbed3c916	-0.41364354
95	0xbe7401ce	-0.23828813
96	0xbe9b806e	-0.30371422
97	0xbefa3753	-0.48870334
98	0xbc824527	-0.015902115
99	0x3f09bcff	0.5380401
100	0x3f0232da	0.50858843
101	0x3ea47771	0.32122377
102	0xbd6af3bc	-0.05736135
103	0xbde2352b	-0.11045297
104	0xbd8fdbb1	-0.07024325
105	0x3e6f82aa	0.23389688
106	0x3e87cc76	0.2652318
107	0x3ee57816	0.4481818
108	0x3f80f671	1.0075208
109	0x3f273a1e	0.65323055
110	0x3eb36a4f	0.35042045
111	0xbe6e1951	-0.23251845
112	0xbf072ee7	-0.5280594
113	0xbec1c916	-0.3784873
114	0xbe9bc06d	-0.30420247
115	0xbe4b7751	-0.19869734
116	0xbda25e2c	-0.07928118
117	0x3f9db40f	1.2320575
118	0x3edb1ee8	0.42797017
119	0x3eb569ad	0.35432187
120	0x3ef34dc7	0.47520277
121	0xbeb90805	-0.3613893
122	0x3d9c18d7	0.07621925
123	0x3e743565	0.23848493
124	0xbecfcc2e	-0.40585464
125	0x3e9804aa	0.29691058
126	0x3f0ae6e1	0.54258543
127	0x3e36bcbe	0.17845437
128	0xbe15de99	-0.14635696
129	0x3e871e3e	0.2639026
130	0xbee1d2dd	-0.44106188
131	0xbe86253b	-0.2620028
132	0xbf1a8b04	-0.6036837
133	0xbf25d3a9	-0.6477609
134	0x3ded7ab2	0.11595668
135	0x3f5081e4	0.814482
136	0x3f09e617	0.53866714
137	0x3ec78e30	0.38975668
138	0x3d074fa0	0.03303492
139	0xbf003971	-0.5008765
140	0xbeda5431	-0.42642358
141	0xbe741fac	-0.23840207
142	0xbf220625	-0.63290626
143	0xbeca1c83	-0.39474878
144	0xbf66f02a	-0.9021021
145	0xbf41163f	-0.7542457
146	0xbf341ce0	-0.7035656
147	0xbee5e37d	-0.44900122
148	0xbe99f5bb	-0.3007029
149	0xbf1ab41a	-0.60431063
150	0x3f0ec115	0.5576337
151	0x3e18da24	0.14926964
152	0xbe917a28	-0.2841351
153	0xbf93973a	-1.1530526
154	0xbf2617a2	-0.6487981
155	0x3d70712f	0.05870169
156	0xbf836519	-1.0265228
157	0xbefc21f5	-0.49244657
158	0x3e0dc405	0.13844307
159	0xbf742389	-0.9536672
160	0xbeaef231	-0.34169152
161	0xbd816a71	-0.0631913
162	0x3e5edcf2	0.21763971
163	0x3e976534	0.295694
164	0x3f3878be	0.7205924
165	0xbe42a76e	-0.19009182
166	0xbdb68243	-0.08911564
167	0x3f0c62b2	0.548381
168	0xbf1b02ff	-0.60551447
169	0x3d4fe34b	0.050753873
170	0x3bc6b52b	0.0060640774
171	0x3e694c69	0.22783054
172	0x3ec30b57	0.3809459
173	0x3c69bedd	0.014266697
174	0x3ca52095	0.020157138
175	0x3e1211ba	0.14264575
176	0xbba41dc1	-0.0050084298
177	0x3df00bf9	0.117210336
178	0x3eadbb3e	0.33931917
179	0x3e3ca26e	0.18421337
180	0xbf58edec	-0.8473804
181	0xbef312f9	-0.47475412
182	0xbf173243	-0.5906107
183	0xbfa126bc	-1.2589946
184	0xbf3038f8	-0.6883693
185	0xbf90a533	-1.1300415
186	0x3f54d561	0.8313809
187	0x3f984661	1.1896478
188	0x3eee3b1b	0.4652947
189	0x3ebee75e	0.37285894
190	0x3f350788	0.70714617
191	0x3f5255ba	0.8216206
192	0x3d0dde76	0.034635983
193	0x3efe9bfb	0.4972838
194	0x3f111603	0.5667421
195	0xbc5d36b3	-0.013501811
196	0x3d89956e	0.067179546
197	0xbe5df16b	-0.21674125
198	0x3eb6b392	0.35683876
199	0x3f04ea1c	0.5191972
200	0x3ee2c8eb	0.44293913
201	0xbdebf9b3	-0.11522236
202	0xbe6bde0e	-0.23033926
203	0xbe9aabb9	-0.3020914
204	0xbed6ae64	-0.41929924
205	0xbf848818	-1.0354033
206	0xbf9806de	-1.1877096
207	0x3cd9530f	0.026528863
208	0xbee0c7ff	-0.43902585
209	0x3d79d9a7	0.060998585
210	0x3fac8d10	1.3480549
211	0x3f8a0e99	1.0785705
212	0x3f85f2b7	1.0464696
213	0x3e2fc42d	0.17164679
214	0xbd111ad7	-0.035425987
215	0xbe35fdcf	-0.17772602
216	0x3e492755	0.1964391
217	0x3e1b7cde	0.15184352
218	0x3ef66124	0.48120987
219	0xbe1542af	-0.14576219
220	0xbf42a806	-0.76037633
221	0xbdf2b842	-0.11851551
222	0xbe2e657d	-0.17030902
223	0xbf8a1c12	-1.0789816
224	0xbeb58906	-0.35456103
225	0xbe628ea3	-0.22124724
226	0xbec18295	-0.3779494
227	0xbe36efb6	-0.1786488
228	0x3cd5f9a5	0.026120016
229	0xbec21791	-0.37908605
230	0xbef0309c	-0.46912086
231	0x3ea3c58f	0.31986663
232	0x3c8a5f3a	0.01689111
233	0xbe60c8a9	-0.21951546
234	0xbec5f99f	-0.38667008
235	0xbeb6fcad	-0.3573965
236	0x3d4c4493	0.049870085
237	0xbf27b5b9	-0.6551166
238	0xbf09a085	-0.5376056
239	0x3de6b35e	0.1126468
240	0xbe395d10	-0.18101907
241	0xbd791273	-0.06080861
242	0x3f0dd56c	0.5540378
243	0x3e322bb0	0.17399478
244	0xbd8b0a0f	-0.06789028
245	0xbe6b38a5	-0.22970827
246	0xbdd0c9cd	-0.101947404
247	0x3ccad286	0.024758589
248	0xbe8826c6	-0.26592082
249	0xbe1b2e9f	-0.15154503
250	0xbdd0c496	-0.10193746
251	0x3e746dfb	0.23870079
252	0x3eea784b	0.457949
253	0x3e96bd63	0.29441366
254	0xbe78feab	-0.24315898
255	0x3ec1859e	0.37797254

intermediate_layers.0.conv.bias f4 [24]
0	0xbdfcc176	-0.12341587
1	0x3ed8889e	0.4229173
2	0xbe5358d5	-0.20639355
3	0xbc271879	-0.010198706
4	0xbe0f8ab9	-0.14017762
5	0x3d113c02	0.03545762
6	0x3e63b738	0.22237861
7	0xbd1b187c	-0.037865147
8	0xbe8008b8	-0.25006652
9	0xbf1c55e9	-0.6106859
10	0xbe281359	-0.1641363
11	0x3e4849f5	0.19559462
12	0xbe280577	-0.16408335
13	0x3d4131c5	0.047166605
14	0x3e51b153	0.204778
15	0x3f59f9ce	0.85146797
16	0xbc9139bb	-0.017727723
17	0x3ee21454	0.44156134
18	0xbf71f663	-0.9451658
19	0xbe9dadee	-0.3079676
20	0x3ea06b1a	0.31331712
21	0x3f548214	0.83010983
22	0x3e30058f	0.1718962
23	0xbd16429d	-0.03668462

intermediate_layers.0.conv_abn.bn.weight f4 [24]
0	0x3f414d74	0.7550881
1	0x3fa0d9f4	1.2566514
2	0x3f6ef747	0.93346065
3	0x3f2e4fb2	0.68090355
4	0x402785bd	2.6175377
5	0x3f9b46d0	1.2130985
6	0x401f18c4	2.4858866
7	0xbe8d945b	-0.2765225
8	0x3f1c428f	0.6103906
9	0xbb4d829b	-0.0031358365
10	0x3f2eef90	0.68334293
11	0x3f30225c	0.6880243
12	0x3f685a9d	0.90763265
13	0x3e98e808	0.29864526
14	0x3ed8d2d0	0.42348337
15	0x3f989f03	1.1923527
16	0x3f3201ca	0.6953398
17	0x3f9f9754	1.2468057
18	0x3f207d82	0.6269151
19	0x3fe7cb90	1.8108997
20	0x3f853e76	1.0409687
21	0x3f75cc2e	0.9601468
22	0x3e9702c8	0.2949431
23	0x3fa323af	1.2745265

intermediate_layers.0.conv_abn.bn.bias f4 [24]
0	0xbe5af8e5	-0.21384008
1	0x3dee2445	0.116280116
2	0xbe9748dd	-0.29547778
3	0xbc62b0cf	-0.0138361
4	0xbf0dcc8e	-0.5539025
5	0xbe261f83	-0.16222958
6	0xbe0b25c8	-0.13588631
7	0x3e409d50	0.1881001
8	0xbebaf332	-0.36513668
9	0xbf45be05	-0.7724307
10	0xbe67f360	-0.22651434
11	0x3e27fcdb	0.1640505
12	0xbeb43872	-0.35199314
13	0xbd665180	-0.05623007
14	0x3ef09054	0.46985114
15	0x3f5de0dc	0.86671233
16	0xbe4fee53	-0.20305757
17	0x3e0b3480	0.13594246
18	0xbf6e9e78	-0.93210554
19	0xbe68203c	-0.22668546
20	0x3e103ff7	0.140869
21	0x3f5293da	0.82256854
22	0x3ee8ebf1	0.4549251
23	0xbe1e50cf	-0.15460514

intermediate_layers.0.conv_abn.bn.running_mean f4 [24]
0	0xbe6d1d78	-0.23155773
1	0xbebb7322	-0.36611277
2	0xbe5c2112	-0.2149699
3	0xbf1df5c2	-0.6170312
4	0xbec1f97d	-0.37885657
5	0xbf2131af	-0.62966436
6	0xbe98464f	-0.2974114
7	0xbf127fa8	-0.5722604
8	0xbed8d4cf	-0.4234986
9	0xbf3ec1dc	-0.74514556
10	0xbe9908fa	-0.2988966
11	0xbdf8a233	-0.12140312
12	0xbf140880	-0.5782547
13	0xbf177330	-0.5916014
14	0xbe87f6d7	-0.2655551
15	0xbe28f82a	-0.16500917
16	0xbf3ac651	-0.72958857
17	0xbee245ff	-0.44194028
18	0xbea4958b	-0.32145342
19	0xbeeacc38	-0.45858932
20	0xbe29d423	-0.1658483
21	0xbd5be03b	-0.05368064
22	0x3f11efe9	0.570067
23	0xbe6e99e3	-0.2330089

intermediate_layers.0.conv_abn.bn.running_var f4 [24]
0	0x3fa05d44	1.2528462
1	0x4086d186	4.2130766
2	0x3fe064d7	1.7530774
3	0x4025b111	2.5889323
4	0x3f8dfaab	1.1092123
5	0x40471c81	3.1111147
6	0x3f5597a9	0.8343454
7	0x403344fa	2.801085
8	0x400f00bf	2.2344205
9	0x40007ad7	2.0074975
10	0x3f8e05a7	1.1095475
11	0x4021f604	2.5306406
12	0x404eb773	3.2299469
13	0x3fba7781	1.456772
14	0x3f8a148d	1.0787522
15	0x3f9363f6	1.1514881
16	0x408b1fc6	4.3476286
17	0x408516b7	4.159023
18	0x3fc4c0e7	1.5371369
19	0x3ff90d46	1.9457176
20	0x405d4fea	3.4580026
21	0x401d7515	2.4602711
22	0x3ff7d9bb	1.9363321
23	0x3f891c73	1.0711807

intermediate_layers.1.conv.weight f4 [24, 24, 3, 3]
0	0xbddf5b98	-0.10906142
1	0xbd93755b	-0.07200118
2	0xbe80be71	-0.25145295
3	0xbe0ed77d	-0.1394939
4	0xbe022d2a	-0.12712541
5	0xbf536673	-0.825782
6	0xbe07e1e0	-0.13269758
7	0x3d64f10b	0.05589394
8	0xbeaa787b	-0.33295044
9	0x3e28b3a8	0.16474783
10	0x3f1b2826	0.60608137
11	0x3ded5145	0.115877666
12	0x3ecea8bf	0.40363118
13	0x3f251399	0.6448303
14	0x3f0e442e	0.55572784
15	0x3eb37ffe	0.35058588
16	0x3f2fd54b	0.68684834
17	0x3f240cdd	0.6408213
18	0x3c72d0dd	0.014820305
19	0xbe2352bf	-0.15949534
20	0x3eaacf68	0.33361363
21	0x3e192f09	0.14959349
22	0x3f3feda1	0.7497197
23	0x3e471c48	0.19444382
24	0xbea9a8cd	-0.33136597
25	0xbea787d8	-0.32720828
26	0x3e2f096d	0.1709344
27	0xbd364722	-0.04450143
28	0x3f20da92	0.6283351
29	0x3e8b9981	0.27265552
30	0x3f46955c	0.77571654
31	0x3f2f111a	0.6838547
32	0x3f0ea6b7	0.55723137
33	0x3d81676b	0.063185535
34	0x3f44856e	0.767661
35	0x3ec18e75	0.37804
36	0xbf1681d1	-0.58791834
37	0xbf0c9722	-0.5491811
38	0x3f68c472	0.9092475
39	0xbf4e776a	-0.8065096
40	0xbf44a88e	-0.76819694
41	0x3f9efbbe	1.2420576
42	0xbe201221	-0.15631916
43	0xbf1a6266	-0.60306394
44	0x3f8da4f6	1.1065967
45	0x3e88e4f6	0.26737183
46	0x3dc721c1	0.09723235
47	0xbc8665e9	-0.016406016
48	0xbf1edb92	-0.6205379
49	0xbf24b8f8	-0.6434474
50	0xbf23a064	-0.6391661
51	0xbf98020c	-1.1875625
52	0xbf44c494	-0.76862454
53	0xbd935238	-0.07193416
54	0x3f766418	0.9624648
55	0x3e815ef5	0.2526776
56	0xbd3a2e38	-0.045454234
57	0xbc45ca4d	-0.012072158
58	0x3e7b06ba	0.24514285
59	0x3c29d696	0.010366103
60	0xbe659408	-0.2241975
61	0x3efb094c	0.4903053
62	0x3eb35e0c	0.3503269
63	0x3ed19fab	0.4094213
64	0xbd463504	-0.048390403
65	0x3d01f775	0.031730134
66	0x3f1db256	0.61600244
67	0x3f171404	0.59014916
68	0x3e1f5996	0.15561518
69	0x3ee90fa7	0.45519754
70	0x3e379da1	0.17931224
71	0xbdc0fa68	-0.09422761
72	0xbf1ca694	-0.6119168
73	0xbe5a4828	-0.21316588
74	0xbdacc031	-0.08435095
75	0xbe2d65da	-0.16933385
76	0xbe6e2907	-0.23257838
77	0xbf58e3c9	-0.8472257
78	0xbd267dd6	-0.04064735
79	0x3d0afd2b	0.033932846
80	0xbddcad1b	-0.10775205
81	0x3e5f5699	0.21810378
82	0xbd11b8f6	-0.035576783
83	0xbe6fd367	-0.23420487
84	0xbe77c7bf	-0.24197291
85	0xbe5ee7b0	-0.2176807
86	0xbedae997	-0.4275634
87	0xbe213819	-0.15744056
88	0xbe842e7a	-0.2581671
89	0xbef02494	-0.46902907
90	0xbdf3f88d	-0.11912642
91	0xbe6f3cfc	-0.23363107
92	0xbc34dc58	-0.011038862
93	0xbe8b4519	-0.27201155
94	0xbeeb8655	-0.46000925
95	0xbcbb7e6d	-0.022887433
96	0xbe509cc5	-0.20372303
97	0xbccebe16	-0.025237124
98	0x3c889570	0.01667282
99	0xbed969ec	-0.42463624
100	0xbe126ac5	-0.14298542
101	0x3e48082c	0.19534367
102	0xbf20db49	-0.628346
103	0xbf0cb9c6	-0.5497097
104	0xbe94358b	-0.289471
105	0xbeb59419	-0.35464552
106	0xbf2e1e34	-0.68014836
107	0xbe49b686	-0.19698533
108	0xbe9bf0dd	-0.30457202
109	0x3ee77fd3	0.4521471
110	0x3ef68e2d	0.48155347
111	0x3eff2d76	0.4983937
112	0xbeb002e7	-0.34377214
113	0x3dd99c42	0.10625507
114	0x3f173265	0.5906127
115	0x3e636c6b	0.22209327
116	0xbe1f122f	-0.1553428
117	0x3ddeb9b7	0.10875266
118	0xbd93e745	-0.072218455
119	0xbe7471a4	-0.23871475
120	0x3f13a095	0.57666904
121	0xbe2542dc	-0.16138786
122	0xbe761f0b	-0.2403528
123	0x3e96229f	0.2932329
124	0xbea33de4	-0.31883156
125	0xbe8f2161	-0.27955154
126	0xbea7f88c	-0.32806814
127	0xbe4b51be	-0.19855401
128	0xbd7d981d	-0.061912645
129	0x3dc47196	0.09591977
130	0xbe2e740c	-0.17036456
131	0xbed2b88f	-0.41156432
132	0x3ecba85c	0.39776886
133	0x3e05a52e	0.13051292
134	0xbeaab260	-0.33339214
135	0x3e65547d	0.22395511
136	0xbf251e6a	-0.64499533
137	0xbe82bbfc	-0.25534046
138	0x3e0ae05f	0.13562153
139	0xbea08ede	-0.31359
140	0xbe73b942	-0.23801139
141	0xbe3f6067	-0.18689118
142	0xbea0e7a6	-0.31426734
143	0xbf011fc0	-0.5043907
144	0x3f060bce	0.5236176
145	0x3eb58ce2	0.35459048
146	0xbe2a0add	-0.16605707
147	0x3f8460be	1.0342023
148	0x3f82d080	1.0219879
149	0x3e90cd31	0.2828155
150	0x3ea16ca2	0.31528193
151	0x3f1b7920	0.607317
152	0x3f497aba	0.7870289
153	0x3eaeb19a	0.34119874
154	0x3f18e354	0.59721875
155	0x3f27dc84	0.65570855
156	0x3f1029b8	0.5631366
157	0x3f6c51ae	0.92312133
158	0x3e641535	0.22273715
159	0x3ea75f6a	0.32689983
160	0x3f1bc684	0.60849786
161	0x3e185e58	0.1487974
162	0x3c04c15c	0.008102741
163	0xbd39565c	-0.045248374
164	0x3e388b11	0.180218
165	0xbda90b20	-0.08254075
166	0xbe04a34c	-0.12952918
167	0x3e8dd4aa	0.27701312
168	0x3e1c3ff7	0.15258776
169	0xbd87109c	-0.06594965
170	0x3e4db787	0.20089541
171	0xbdbc7a75	-0.09203044
172	0x3edcd214	0.43129027
173	0x3e892510	0.2678609
174	0x3ee72c1b	0.45150837
175	0x3e5a0150	0.21289563
176	0x3e7aaed3	0.24480753
177	0x3f0b738f	0.54473203
178	0x3eb8ed7d	0.3611869
179	0x3e148e8e	0.14507505
180	0xbe8795b2	-0.26481396
181	0xbe4cf4a3	-0.20015197
182	0xbe1bd560	-0.15218115
183	0xbeaad2d6	-0.3336398
184	0xbef9a84c	-0.48761213
185	0xbee87b6a	-0.45406657
186	0xbf1cc8c2	-0.6124383
187	0xbec8715b	-0.39148983
188	0x3de94dca	0.1139179
189	0xbf073e4a	-0.5282942
190	0xbe049952	-0.12949112
191	0xbd935753	-0.0719439
192	0xbeab860e	-0.33500713
193	0x3d99704f	0.07492124
194	0x3e4e9b60	0.20176458
195	0xbe733b5c	-0.23753113
196	0xbe2dbd36	-0.1696671
197	0xbe4e03ce	-0.20118639
198	0xbee53192	-0.44764382
199	0x3e9cb487	0.3060648
200	0x3ddc62b9	0.10761017
201	0xbee1ebc7	-0.44125196
202	0x3eac7372	0.33681828
203	0xbd81a5a9	-0.06330425
204	0xbf1111cf	-0.566678
205	0x3e830516	0.25589818
206	0x3e27c428	0.16383421
207	0x3e70941f	0.23494004
208	0x3cd8cc40	0.026464581
209	0x3db45d94	0.08806911
210	0xbe994889	-0.29938152
211	0xbd51c638	-0.051214427
212	0xbda41a1e	-0.08012794
213	0xbeaf5411	-0.34243825
214	0x3dc06812	0.0939485
215	0x3ea26740	0.31719398
216	0xbc30c177	-0.010788313
217	0x3e69db85	0.22837646
218	0x3d36dedd	0.044646133
219	0xbec9d95d	-0.39423648
220	0x3e246e90	0.16057801
221	0x3e90e437	0.28299114
222	0xbdaf7da3	-0.08568885
223	0xbdb7ac9f	-0.08968472
224	0x3ed20caa	0.41025287
225	0x3e11412f	0.14185022
226	0x3e9e2bd9	0.30892828
227	0x3f0cbdfa	0.5497738
228	0xbdb5d442	-0.088783756
229	0x3ee78e6b	0.45225844
230	0x3ea06078	0.313236
231	0xbd292f48	-0.041304857
232	0xbe92b573	-0.2865406
233	0xbeb57905	-0.35443893
234	0x3e858d29	0.2608426
235	0x3f462022	0.7739278
236	0x3f01d204	0.50711083
237	0xbe9ba193	-0.3039671
238	0xbf0a91bd	-0.5412863
239	0xbf9da043	-1.2314533
240	0xbe2e36c7	-0.17013083
241	0xbe80150a	-0.25016052
242	0xbf691ee9	-0.9106279
243	0x3ecc5626	0.39909476
244	0x3d99ab77	0.075034074
245	0xbe8f6e8b	-0.28014025
246	0xbe814a84	-0.25252163
247	0xbf85abc9	-1.044305
248	0xbeaffd8c	-0.34373128
249	0x3e1fe42f	0.15614389
250	0xbf1a214b	-0.6020705
251	0xbe31c389	-0.17359747
252	0xbf1fa93a	-0.62367594
253	0xbef195e3	-0.47184667
254	0xbf273443	-0.6531412
255	0x3f386411	0.7202769

intermediate_layers.1.conv.bias f4 [24]
0	0xbf42192f	-0.7581968
1	0x3ed948fc	0.42438495
2	0xbeb29865	-0.34881893
3	0xbf36ccea	-0.71406424
4	0xbf357b05	-0.7089084
5	0xbed418c7	-0.41425154
6	0xbd8db4c3	-0.06919243
7	0xbed3717c	-0.4129752
8	0x3e444cfe	0.19169995
9	0x3f84d04e	1.037607
10	0x3e6a269b	0.2286629
11	0xbf004e6f	-0.5011968
12	0xbd5ab593	-0.05339582
13	0xbe9906c3	-0.2988797
14	0x3e1daafa	0.15397254
15	0x3f49ec47	0.78876156
16	0x3d34ade1	0.044111136
17	0x3e158e6c	0.14605111
18	0x3f2e109f	0.6799411
19	0xbdd716d9	-0.10502405
20	0xbe07f35e	-0.13276431
21	0xbe2c9c68	-0.16856539
22	0xbd9fb525	-0.077982225
23	0x3e0cc32b	0.13746326

intermediate_layers.1.conv_abn.bn.weight f4 [24]
0	0x3f8d93d4	1.1060739
1	0x3df1e2f1	0.11810864
2	0x3ee0c9d1	0.43903974
3	0x3e49a171	0.19690491
4	0xbe40ce73	-0.18828754
5	0x3f303e8d	0.68845445
6	0x3f2604a2	0.6485082
7	0x3e79b73f	0.24386309
8	0x3f0652a7	0.5246987
9	0xbe742eca	-0.23845974
10	0x3f3ae18b	0.730004
11	0xbbbb7041	-0.005720169
12	0x3e32c4a7	0.1745783
13	0x3eadf108	0.33972955
14	0x3dc2da7e	0.0951433
15	0x3d9a6744	0.075392276
16	0x3ea28092	0.31738716
17	0x3f5d258c	0.86385417
18	0xbea01a79	-0.31270197
19	0x3f3991d5	0.7248815
20	0xbd3e9ce8	-0.046536356
21	0x3ca70f35	0.020392993
22	0xbdb00adf	-0.085958235
23	0xbc4439f8	-0.011976711

intermediate_layers.1.conv_abn.bn.bias f4 [24]
0	0xbf89b9f0	-1.0759869
1	0x3e90279a	0.28155214
2	0xbeb883e5	-0.36038128
3	0xbde298c8	-0.11064297
4	0xbdf82dac	-0.12118086
5	0xbeb1b68b	-0.34709582
6	0xbe558d59	-0.20854701
7	0xbe8ea9be	-0.27863878
8	0xbe93381f	-0.28753754
9	0x3ef91267	0.48646852
10	0x3e010b05	0.1260186
11	0x3df9a040	0.121887684
12	0xbdb5864e	-0.08863507
13	0xbe7dbc0e	-0.24778768
14	0x3e2133f7	0.1574248
15	0x3eb82281	0.35963824
16	0x3de07568	0.109598935
17	0xbe8f0fee	-0.2794184
18	0x3f06736e	0.5251988
19	0xbd387ef8	-0.04504296
20	0x3e287905	0.16452415
21	0x3e2b8b39	0.16752328
22	0x3cb0d054	0.021583714
23	0x3f00e506	0.5034946

intermediate_layers.1.conv_abn.bn.running_mean f4 [24]
0	0xbf31d726	-0.69468915
1	0x3ea449a8	0.32087445
2	0xbf26a222	-0.65091145
3	0xbf1082ae	-0.564494
4	0xbf6627d0	-0.899045
5	0xbf46138a	-0.77373564
6	0xbe31d5f9	-0.1736678
7	0xbf455694	-0.7708523
8	0xbf87ae77	-1.0600117
9	0xbf1923d1	-0.59820276
10	0xbeec27e2	-0.46124178
11	0xbf0eb57b	-0.5574567
12	0xbecae0ff	-0.39624783
13	0x3ee843bd	0.4536418
14	0xbea1fe29	-0.3163922
15	0xbefa5790	-0.4889493
16	0xbeaee6d0	-0.3416047
17	0xbf7893c4	-0.9710047
18	0xbeb19682	-0.3468514
19	0xbf1b0b2f	-0.6056394
20	0xbf6303dd	-0.8867777
21	0xbe9b8ed8	-0.3038242
22	0xbeae9aaf	-0.3410239
23	0xbec86ed2	-0.3914705

intermediate_layers.1.conv_abn.bn.running_var f4 [24]
0	0x408ec49d	4.4615006
1	0x410574f1	8.34105
2	0x40d15b03	6.54236
3	0x403b8ad2	2.930348
4	0x409e78f4	4.952265
5	0x40a9d956	5.3077803
6	0x40ee93ea	7.455556
7	0x408ae5b7	4.3405414
8	0x40ec35af	7.381553
9	0x40c40d98	6.1266594
10	0x40f12e9f	7.536941
11	0x402aabf1	2.6667445
12	0x4047fa38	3.1246471
13	0x4011a249	2.27553
14	0x4065c77d	3.5903008
15	0x40c52eff	6.161987
16	0x40398f26	2.899362
17	0x40c7ae07	6.2399936
18	0x412d7c6d	10.842877
19	0x40d65f40	6.699127
20	0x4059df94	3.4042711
21	0x408af82b	4.342794
22	0x403458fe	2.8179317
23	0x3fe2f705	1.7731634

intermediate_layers.2.conv.weight f4 [24, 24, 3, 3]
0	0x3e1a78da	0.15085164
1	0xbf1c36bf	-0.61021036
2	0xbf4f40dc	-0.8095834
3	0x3e6ac4a3	0.22926573
4	0xbf79b978	-0.9754863
5	0xbf83ac33	-1.0286926
6	0x3ec77eab	0.38963827
7	0xbedef570	-0.4354663
8	0xbf4b7ac4	-0.794842
9	0xbf14e164	-0.5815642
10	0xbf58f113	-0.8474285
11	0xbf3c781e	-0.73620784
12	0xbec843bf	-0.39114186
13	0xbf55d12f	-0.83522314
14	0xbf25f585	-0.6482776
15	0xbdb08615	-0.08619324
16	0xbd8fad49	-0.070154734
17	0xbe9a7d49	-0.3017371
18	0xbf06d2f1	-0.5266562
19	0xbf7e88d4	-0.99427533
20	0xbf30e7ae	-0.69103515
21	0xbf6cdbd2	-0.9252292
22	0xbfbce049	-1.4755946
23	0xbf7a0a74	-0.976722
24	0xbebc255c	-0.36747253
25	0xbeff8a56	-0.4991023
26	0xbe6d4e4c	-0.23174399
27	0xbeca9c77	-0.39572498
28	0xbf163a95	-0.5868314
29	0xbea3b9de	-0.31977743
30	0xbf03fe9c	-0.5156038
31	0xbf4012f2	-0.7502891
32	0x3ca3f1fc	0.020012848
33	0xbef81dfe	-0.48460382
34	0xbf1b4d82	-0.6066514
35	0xbf061589	-0.5237661
36	0xbf657461	-0.89630705
37	0xbf366355	-0.7124532
38	0xbf03f5e5	-0.5154708
39	0xbf440282	-0.76566327
40	0xbf7dbf5b	-0.9912011
41	0xbf110abe	-0.56657016
42	0xbf0c4c18	-0.5480361
43	0xbeec4a65	-0.4615051
44	0xbe567d47	-0.20946227
45	0xbca163c0	-0.019700885
46	0xbeb00572	-0.34379154
47	0xbea7d5ee	-0.32780403
48	0xbe846163	-0.2585555
49	0xbf8dd4c9	-1.1080562
50	0xbf6479cb	-0.8924834
51	0xbdacfb36	-0.08446352
52	0xbf93c564	-1.1544614
53	0xbf80a86d	-1.00514
54	0xbf1f5ae5	-0.6224807
55	0xbf284890	-0.6573572
56	0xbb6c9ba0	-0.0036103502
57	0xbf6b640e	-0.91949546
58	0xbfbf73be	-1.4957197
59	0xbe5faddf	-0.2184367
60	0xbf249949	-0.64296395
61	0xbf090744	-0.5352671
62	0x3d00a880	0.031410694
63	0xbe23a102	-0.15979388
64	0x3df64b14	0.12026039
65	0xbe8422e5	-0.25807872
66	0xbe9ac082	-0.30224997
67	0xbec35345	-0.38149467
68	0xbf36c907	-0.71400493
69	0xbeda287b	-0.4260901
70	0xbe55d9da	-0.20883885
71	0xbec88fdc	-0.39172256
72	0xbf54ada1	-0.83077437
73	0xbe9df986	-0.30854434
74	0x3e4a99c0	0.19785213
75	0xbf8f7224	-1.1206708
76	0xbe60d405	-0.21955879
77	0x3e9d95fb	0.3077849
78	0xbf083274	-0.53201985
79	0xbf09b604	-0.5379336
80	0x3c34ba5c	0.01103076
81	0xbf0e0369	-0.55473953
82	0xbc3d8948	-0.011568375
83	0x3e724702	0.236599
84	0xbc03bc04	-0.008040432
85	0x3f2dd849	0.6790815
86	0x3f568df8	0.8381038
87	0x3eb21b4c	0.3478645
88	0x3f8507ca	1.0393002
89	0x3f7c8ac4	0.9864924
90	0xbf01be7b	-0.50681275
91	0xbf0d52e2	-0.55204594
92	0x3d973c89	0.07384593
93	0xbe5e93c1	-0.21736051
94	0xbeab1de9	-0.33421257
95	0x3e53f932	0.20700529
96	0xbefc8d6d	-0.4932665
97	0xbcc33e14	-0.023833312
98	0x3f04df30	0.5190306
99	0xbec04563	-0.37552938
100	0xbee5a980	-0.4485588
101	0xbeb85e33	-0.36009368
102	0x3cb0b851	0.021572264
103	0xbec316c3	-0.38103303
104	0xbd956af0	-0.07295787
105	0xbe19d13e	-0.15021226
106	0xbc41ec70	-0.011836156
107	0xbe797779	-0.24361981
108	0xbefdc263	-0.49562368
109	0xbeb5da7f	-0.35518262
110	0xbe803c69	-0.2504609
111	0xbf151800	-0.58239746
112	0xbd8ec64d	-0.069714166
113	0xbe9c7a6f	-0.3056216
114	0xbd4a9f85	-0.049468536
115	0x3e323406	0.17402658
116	0xbe41706d	-0.18890543
117	0x3ced3af2	0.028958771
118	0x3c881275	0.016610363
119	0x3d92f2b6	0.071752
120	0xbd8a9081	-0.06765843
121	0xbf1e9017	-0.61938614
122	0xbea16565	-0.3152267
123	0xbe18badb	-0.1491503
124	0xbf2a5552	-0.6653644
125	0xbef63e66	-0.4809448
126	0xbe84ad36	-0.259134
127	0xbf1e2d97	-0.61788315
128	0xbf408aeb	-0.7521197
129	0xbefc23d2	-0.4924608
130	0xbf1667ef	-0.5875234
131	0xbf12a366	-0.57280576
132	0xbf570d86	-0.8400501
133	0xbe218c69	-0.15776218
134	0xbe6ec902	-0.23318866
135	0x3f0b7dcd	0.5448883
136	0xbf12e250	-0.57376575
137	0xbf6344e8	-0.8877702
138	0x3e1198fb	0.14218514
139	0xbf0f445c	-0.55963683
140	0xbf56f1f2	-0.8396293
141	0xbd053fb0	-0.03253144
142	0xbe928963	-0.28620443
143	0xbf5a0c31	-0.8517485
144	0x3f6e1fe2	0.930174
145	0x3f8aa917	1.0832852
146	0x3f072870	0.5279608
147	0x3f665282	0.89969647
148	0x3f7e81ef	0.9941701
149	0x3eab6247	0.33473417
150	0x3efb819c	0.49122322
151	0x3f2f52da	0.68485796
152	0x3d0f39ed	0.03496735
153	0xbec20466	-0.3789398
154	0xbf213ed9	-0.6298652
155	0xbe22aa1d	-0.15885206
156	0xbf1dfdbc	-0.6171529
157	0xbfbe3596	-1.4860103
158	0xbef8eaf4	-0.48616755
159	0xbeeddf98	-0.4645965
160	0xbf8623a6	-1.0479629
161	0xbf20ac4e	-0.62762916
162	0xbe2e7d6d	-0.17040034
163	0x3eb28941	0.3487034
164	0x3ded1b86	0.11577515
165	0xbe9337c7	-0.28753492
166	0xbeb3dde2	-0.3513022
167	0xbebe1f90	-0.37133455
168	0xbf2c4a5e	-0.67300975
169	0xbf3840a2	-0.7197362
170	0xbf6cc764	-0.92491746
171	0xbe3e1e62	-0.18566278
172	0xbef0c7b4	-0.4702736
173	0xbf07b862	-0.5301572
174	0xbf0cd41a	-0.5501114
175	0xbf853e0b	-1.0409559
176	0xbf4c8165	-0.7988494
177	0xbf0c53ba	-0.54815257
178	0xbf112444	-0.5669596
179	0xbef00b56	-0.4688365
180	0xbe158f6a	-0.1460549
181	0xbc5db6b2	-0.0135323275
182	0xbe34062c	-0.1758048
183	0xbdb4123c	-0.087925404
184	0xbee13801	-0.4398804
185	0x3da03ac4	0.07823709
186	0xbdf45216	-0.11929719
187	0xbd073b6b	-0.03301565
188	0xbe680e97	-0.22661816
189	0xbe457803	-0.19284062
190	0xbda0a956	-0.07844798
191	0xbe3d8e2f	-0.1851127
192	0x3e7cce3a	0.24688044
193	0x3e165aeb	0.1468312
194	0xbc9a6faf	-0.018852083
195	0x3d405e0b	0.046964686
196	0x3d3c4835	0.0459673
197	0xbe23323b	-0.1593713
198	0xbc2c6ecf	-0.010524466
199	0xbd7834db	-0.060597282
200	0x3daaf3e0	0.08347297
201	0xbee209a4	-0.4414798
202	0x3d6be8c3	0.057595026
203	0xbe0f4a0e	-0.13993093
204	0xbe92e460	-0.2868986
205	0x3bacfef0	0.0052794144
206	0xbe27fc3b	-0.16404812
207	0x3eea1c0c	0.45724523
208	0x3f0853c6	0.5325283
209	0x3e880d70	0.26572752
210	0x3f250d85	0.64473754
211	0x3f33c344	0.70219827
212	0x3ec36e5a	0.3817013
213	0x3ecacbdb	0.39608654
214	0x3eea8969	0.4580796
215	0x3e08f844	0.13375956
216	0x3e34c2bd	0.17652412
217	0x3f27b2d9	0.65507275
218	0x3e82fcd4	0.25583518
219	0x3ebbc32d	0.36672345
220	0x3d86b780	0.065779686
221	0x3ef310be	0.4747371
222	0x3e372cc3	0.17888169
223	0x3e831ecf	0.25609443
224	0x3eee4ed5	0.4654452
225	0x3f01647f	0.5054397
226	0x3ed7aed1	0.42125562
227	0x3e9922e5	0.29909435
228	0x3f0f12c5	0.55888015
229	0x3fa8f778	1.3200521
230	0x3f02a354	0.5103047
231	0x3e977c9f	0.29587266
232	0x3d980704	0.07423213
233	0x3e532df1	0.20622994
234	0xbe02d02d	-0.12774725
235	0x3dbf3d0c	0.09337816
236	0xbd13b329	-0.036059532
237	0xbeafa703	-0.34307107
238	0xbf521110	-0.82057285
239	0xbe8eb928	-0.27875638
240	0xbe890d82	-0.26768118
241	0x3d333377	0.043750253
242	0xbe57d75b	-0.21078245
243	0x3ed5d92d	0.41767254
244	0x3eeaecb6	0.4588372
245	0x3e81d04e	0.25354236
246	0x3f2d35c6	0.67660177
247	0x3c7092c9	0.014683434
248	0x3ec498f0	0.38397932
249	0x3eb5b682	0.35490805
250	0x3f128f26	0.5724968
251	0x3f16e799	0.5894714
252	0x3f017602	0.5057069
253	0x3f1b65d6	0.60702264
254	0x3e945391	0.28970006
255	0x3dc7b6a7	0.09751635

intermediate_layers.2.conv.bias f4 [24]
0	0x3f9792d5	1.1841685
1	0x3eaba74f	0.33526084
2	0x3e565f2c	0.20934743
3	0xbeafeedc	-0.34361923
4	0xbef0766f	-0.46965358
5	0xbc0f39bb	-0.008741791
6	0x3f987e02	1.1913455
7	0xbe86c9b5	-0.26325765
8	0x3dad840b	0.08472451
9	0x3e3fd936	0.18735203
10	0xbeef19d4	-0.46699393
11	0xbe3cdebe	-0.18444344
12	0x3ec45372	0.38344914
13	0xbdda55dc	-0.106609076
14	0xbd5a9f80	-0.053374767
15	0xbf0a4aa7	-0.5402016
16	0xbdf63fe5	-0.12023906
17	0xbe942b86	-0.28939456
18	0xbea5de2f	-0.32396075
19	0x3f2dd083	0.6789629
20	0x3eacdbb5	0.33761373
21	0xbd31d4eb	-0.043415945
22	0xbeeb1043	-0.45910844
23	0xbec52fcb	-0.38513026

intermediate_layers.2.conv_abn.bn.weight f4 [24]
0	0x3ea2c2a7	0.31789133
1	0xbc764bea	-0.015032748
2	0x3f268f9e	0.6506289
3	0x3e0f8ba7	0.14018117
4	0x3f5fa85c	0.8736627
5	0xbfa97b98	-1.3240843
6	0x3ec9f4d7	0.3944461
7	0x3ee7ca56	0.45271558
8	0x3e95d086	0.29260653
9	0x3f582062	0.8442441
10	0x3eea6f24	0.4578792
11	0x3f0f1a8a	0.5589987
12	0x3d207693	0.03917558
13	0x3f14228b	0.5786521
14	0xbe7b9afd	-0.24570842
15	0x3ebefdf7	0.37303135
16	0xbc5d1cee	-0.013495667
17	0x3e885b3f	0.26632115
18	0x3e57d558	0.21077478
19	0x3ebe2b44	0.37142384
20	0xbf797e66	-0.97458494
21	0x3e517721	0.204556
22	0x3eeb66fb	0.45977005
23	0x3f2d0a4d	0.6759384

intermediate_layers.2.conv_abn.bn.bias f4 [24]
0	0x3f13d75c	0.5775049
1	0x3eaff9e7	0.34370348
2	0x3e65074e	0.22366068
3	0xbf05cafc	-0.52262855
4	0xbf33d633	-0.7024872
5	0x3eec22e5	0.46120372
6	0x3f6a37a9	0.9149118
7	0xbf067f60	-0.5253811
8	0xbd14eeab	-0.036360424
9	0xbe6a27ec	-0.22866791
10	0xbf93caf9	-1.1546317
11	0xbd81cc96	-0.0633785
12	0x3ef40aad	0.47664395
13	0xbf29b96f	-0.66298574
14	0xbde5bc0d	-0.112175085
15	0xbe2d71e8	-0.16937983
16	0xbee51f61	-0.44750503
17	0xbea6ad66	-0.32554168
18	0x3caa01e8	0.020752862
19	0x3f327193	0.6970455
20	0x3f810d91	1.0082265
21	0xbda4d6d5	-0.080487885
22	0xbf36235d	-0.7114771
23	0x3dade3e5	0.08490733

intermediate_layers.2.conv_abn.bn.running_mean f4 [24]
0	0xbfcd7ce3	-1.6053737
1	0x3f570faf	0.84008306
2	0xbf6cb654	-0.9246571
3	0xbeec9be0	-0.46212673
4	0x3e29170f	0.16512702
5	0xbea25393	-0.31704387
6	0xbf58b3f5	-0.8464959
7	0xbfcfd3c7	-1.6236504
8	0x3c120238	0.008911662
9	0xbf950633	-1.1642517
10	0x3dfffaba	0.12498994
11	0x3e27966f	0.1636598
12	0x3d793ceb	0.06084911
13	0xbfb90055	-1.4453226
14	0xc0007eea	-2.0077462
15	0x3ecf9eba	0.40550786
16	0xbf411e2b	-0.7543666
17	0xbe4d231b	-0.20032923
18	0xbf0aadfa	-0.5417172
19	0xc02dda47	-2.7164476
20	0xbeedebd3	-0.46468982
21	0xbfa3e5d6	-1.2804515
22	0xbf1885c0	-0.59579086
23	0xbf894d5d	-1.0726734

intermediate_layers.2.conv_abn.bn.running_var f4 [24]
0	0x40d578c5	6.6709924
1	0x40de1d18	6.9410515
2	0x40ca3bea	6.3198137
3	0x402c45ad	2.6917527
4	0x4056a671	3.3539088
5	0x40f96523	7.793596
6	0x402920f6	2.6426368
7	0x40bf4c9e	5.9781027
8	0x4073a3a9	3.806864
9	0x40229d0e	2.5408359
10	0x403407c4	2.812974
11	0x405d18e7	3.454645
12	0x4014393a	2.3159928
13	0x40a8e270	5.2776413
14	0x409a68b6	4.825282
15	0x409df791	4.9364705
16	0x40262c9a	2.5964723
17	0x40bc56f5	5.885615
18	0x40551e38	3.3299694
19	0x4103aba6	8.229406
20	0x405a01fc	3.406371
21	0x40a43064	5.130907
22	0x4052890a	3.2896142
23	0x4088f80a	4.280278

intermediate_layers.3.conv.weight f4 [24, 24, 3, 3]
0	0x3eba5c1f	0.36398408
1	0x3f31b538	0.6941714
2	0xbf83d7be	-1.0300214
3	0x3ef37a39	0.47554186
4	0x3f32e71c	0.69883895
5	0xc013cadb	-2.3092563
6	0x3e9b540a	0.30337554
7	0x3f3f7c63	0.74799174
8	0xbf1396f7	-0.5765223
9	0x3af919c3	0.001900487
10	0xbe1d330b	-0.15351503
11	0xbdb1f4ec	-0.08689293
12	0xbeac56a1	-0.33659843
13	0x3f582fb5	0.84447795
14	0xbf05deb4	-0.52292943
15	0x3d9b13f7	0.07572167
16	0xbc85c6aa	-0.016330082
17	0x3d972dad	0.07381759
18	0xbdf769a5	-0.12080697
19	0x3da34d3a	0.07973714
20	0x3eeb740b	0.4598697
21	0x3eafd91b	0.34345326
22	0xbc9f5fa8	-0.019454792
23	0xbf15ddbd	-0.5854147
24	0xbeae85e3	-0.34086522
25	0xbd087452	-0.033314057
26	0xbc8d0fca	-0.017219443
27	0xbe80db43	-0.25167283
28	0xbe7e84f1	-0.248554
29	0xbe5ac24a	-0.21363178
30	0x3f1e599d	0.6185549
31	0x3e28d330	0.16486812
32	0xbe472472	-0.19447497
33	0xbe7192c8	-0.23591149
34	0xbec67ec1	-0.3876858
35	0xbd53753b	-0.05162547
36	0xbd21bfa0	-0.03948939
37	0x3ea15f94	0.31518233
38	0x3ed81743	0.42205247
39	0x3eadfc4c	0.3398155
40	0x3e78b800	0.2428894
41	0xbf7adb49	-0.9799085
42	0x3dc22d00	0.09481239
43	0x3ecc22b2	0.3987022
44	0x3ec6e482	0.38846213
45	0x3de9ed2e	0.114221916
46	0x3e2dd7c2	0.16976836
47	0x3ef4c7dc	0.4780873
48	0xbed4f7bb	-0.41595253
49	0xbee173a6	-0.44033545
50	0x3e9a5137	0.30140087
51	0x3d8cc729	0.06873924
52	0x3df942c7	0.1217094
53	0x3ec85e1b	0.39134297
54	0x3ddd7373	0.10813036
55	0x3eb0f067	0.34558412
56	0x3dc60795	0.09669415
57	0x3dfe6982	0.12422468
58	0x3e9481d5	0.29005304
59	0xbf3c8551	-0.73640925
60	0x3df2e381	0.11859799
61	0x3e8e03b9	0.27737215
62	0x3d4437fb	0.04790495
63	0xbe3b6884	-0.18301588
64	0xbe436475	-0.1908129
65	0x3eaaf6e6	0.33391494
66	0x3ed5d990	0.4176755
67	0x3fc00791	1.5002309
68	0xbe1e318c	-0.15448588
69	0xbbfd43da	-0.007729036
70	0x3e952d14	0.29135954
71	0xbf4ccda4	-0.8000128
72	0xbe351260	-0.17682791
73	0x3e8fd88a	0.28094894
74	0x3e9c95f4	0.30583155
75	0xbdb3cf83	-0.08779814
76	0xbf087472	-0.5330268
77	0xbef6bf54	-0.48192847
78	0xbd7e3f4a	-0.062072076
79	0x3f197906	0.5995029
80	0x3f009b18	0.50236654
81	0xbe76ba0d	-0.2409441
82	0x3d4803e6	0.048831843
83	0xbf3196f7	-0.6937098
84	0x3e7a9cf6	0.24473938
85	0xbeab0b8b	-0.33407244
86	0xbf7cf160	-0.9880581
87	0x3e3c2179	0.18372144
88	0x3ec626b4	0.38701403
89	0xbe0e689e	-0.13907096
90	0x3e4be44c	0.19911307
91	0xbed9e607	-0.4255831
92	0x3cfee27e	0.03111386
93	0x3edd8b2a	0.43270236
94	0xbde91d5b	-0.11382552
95	0xbb3ba26b	-0.0028630744
96	0x3b86b4c1	0.004110903
97	0xbf071bee	-0.5277699
98	0x3d750480	0.059818745
99	0xbe009a17	-0.1255878
100	0xbead9bfc	-0.3390807
101	0xbdd312f6	-0.10306351
102	0xbdf720ec	-0.12066826
103	0xbdfc00fb	-0.123048745
104	0xbe8f5725	-0.27996174
105	0xbe62fcd4	-0.22166759
106	0xbf1f6ee4	-0.6227858
107	0xbecffdbc	-0.4062327
108	0x3e62855e	0.22121188
109	0xbe853f57	-0.26024887
110	0x3e12f189	0.14349951
111	0xbddeced5	-0.10879294
112	0x3d84404d	0.06457577
113	0xbd3e8f81	-0.046523575
114	0xbd9b3105	-0.07577709
115	0xbe865ddc	-0.26243484
116	0xbed0647f	-0.40701672
117	0x3d3bd5cc	0.04585819
118	0x3d09241d	0.033481706
119	0x3e896953	0.26838169
120	0x3e702a42	0.2345362
121	0xbe5b3017	-0.21405064
122	0x3f7eaa18	0.9947829
123	0x3e6f5c32	0.23375013
124	0xbdc8fb47	-0.09813552
125	0xbcaa7f2e	-0.020812597
126	0xbe234449	-0.15944017
127	0xbdb4d8db	-0.088304244
128	0xbd1d307a	-0.03837631
129	0xbf3960a1	-0.7241307
130	0xbfa462d5	-1.2842661
131	0x3e9f4b1a	0.31111985
132	0xbea8560b	-0.32878146
133	0xbda88204	-0.082279235
134	0x3d858676	0.06519787
135	0xbdb2df25	-0.08733968
136	0xbdc8749c	-0.097878665
137	0xbe795cc3	-0.24351792
138	0x3cbd86c1	0.023135545
139	0x3f65ba3b	0.8973729
140	0xbd8ad7a7	-0.06779414
141	0xbe4138e1	-0.18869354
142	0x3d9dbe44	0.07702306
143	0xbbc2a410	-0.005939968
144	0xbe912d26	-0.28354758
145	0xbe8b3be1	-0.2719412
146	0x3e4c6287	0.1995946
147	0x3d95286d	0.07283101
148	0x3f573d8f	0.84078306
149	0x3e5e9d63	0.21739726
150	0xbe9b63cb	-0.30349573
151	0xbe999c6d	-0.30002156
152	0x3e5454fd	0.20735545
153	0xbe840813	-0.2578741
154	0xbd90d759	-0.07072324
155	0xbeb3ea73	-0.35139808
156	0x3f920895	1.1408869
157	0xbd2d0cb3	-0.04224844
158	0xbf17311d	-0.59059316
159	0xbe921bba	-0.2853678
160	0xbe6e8cba	-0.2329587
161	0xbe961350	-0.2931161
162	0xbd3f3e89	-0.046690498
163	0x3d3a6801	0.045509342
164	0x3da79c2f	0.081840865
165	0xbd358e99	-0.044325445
166	0xbf44d6bb	-0.7689015
167	0x3e6d569e	0.23177573
168	0xbd76c242	-0.060243852
169	0xbed80e4e	-0.42198414
170	0x3e9017e4	0.28143227
171	0x3ba94075	0.0051651546
172	0x3ed31954	0.4123026
173	0x3f0928df	0.5357799
174	0x3e35e827	0.1776434
175	0x3d06d01d	0.032913316
176	0x3e0a2f2f	0.13494562
177	0xbda36499	-0.07978172
178	0x3eb18173	0.34669074
179	0x3f02acbb	0.51044816
180	0xbddfbda3	-0.10924842
181	0xbe8ac1a7	-0.2710087
182	0xbe76fec3	-0.24120621
183	0x3e1394a5	0.14412172
184	0xbf215220	-0.6301594
185	0xbe976404	-0.29568493
186	0xbe18401f	-0.1486821
187	0xbe36f498	-0.17866743
188	0xbe6c3385	-0.23066528
189	0xbce3fb82	-0.02782989
190	0x3f01e198	0.50734854
191	0x3dda396c	0.106554836
192	0x3ec5454e	0.38529438
193	0x3fcf502a	1.6196339
194	0x3ec31bdb	0.3810719
195	0xbe9906e3	-0.29888067
196	0xbe8a854e	-0.27054828
197	0xbd117fee	-0.035522394
198	0x3e71ebcd	0.23625107
199	0x3e217612	0.15767696
200	0xbc008aaf	-0.007845565
201	0xbebd6e7a	-0.3699835
202	0xbee445c6	-0.44584483
203	0x3e6006f5	0.21877654
204	0x3e04f654	0.12984592
205	0xbd4c9857	-0.04994997
206	0x3e18857d	0.14894672
207	0xba4d0837	-0.00078213535
208	0x3ede2e1a	0.43394548
209	0xbb92874e	-0.004471696
210	0x3f2f3982	0.68447125
211	0xbfd772c1	-1.6831895
212	0xbf0badd9	-0.54562145
213	0x3e997ec2	0.2997952
214	0x3f04e4ae	0.5191144
215	0x3ef99fe5	0.48754802
216	0x3d953219	0.07284946
217	0xbdcdff2b	-0.10058435
218	0x3ecb7a65	0.39741817
219	0xbf327ffb	-0.6972653
220	0x3e566f69	0.20940937
221	0x3f313818	0.6922622
222	0x3d9cb998	0.07652587
223	0xbeda138d	-0.4259304
224	0x3e3981ed	0.18115969
225	0xbd571ffc	-0.052520737
226	0xbe4c67e8	-0.19961512
227	0xbda9792c	-0.08275065
228	0x3d674a43	0.056467306
229	0xbf504349	-0.8135267
230	0xbd19078d	-0.037360717
231	0xbdd1e5e3	-0.102489255
232	0xbe5d89a5	-0.21634538
233	0xbdc5be9c	-0.096554965
234	0xbd873112	-0.06601156
235	0xbd4a269f	-0.04935324
236	0x3df9e389	0.12201602
237	0xbd70821d	-0.058717836
238	0xbd3ae5a1	-0.045629147
239	0xbe54315c	-0.20721954
240	0xbd85fec8	-0.06542736
241	0x3d460676	0.048346005
242	0x3e515e73	0.20446186
243	0x3e27eee5	0.16399725
244	0xbd57123b	-0.05250762
245	0xbd367fae	-0.04455536
246	0x3e300acc	0.17191619
247	0xbe9a0d1f	-0.30088136
248	0xbd918f7e	-0.07107447
249	0x3e016752	0.1263707
250	0x3a3d8137	0.00072290323
251	0xbd82fefd	-0.063962914
252	0xbde9b1bd	-0.11410854
253	0x3dcdc8b3	0.10048046
254	0xbdc06120	-0.09393525
255	0x4005daf0	2.091488

intermediate_layers.3.conv.bias f4 [24]
0	0xbe70731c	-0.2348141
1	0xbcc790b6	-0.024360996
2	0x3ef02948	0.46906495
3	0xbe2bdf60	-0.1678443
4	0x3ee38ef4	0.44445002
5	0x3ee24951	0.4419656
6	0x3c742545	0.014901464
7	0x3f28a868	0.6588197
8	0x3dd7a59a	0.10529633
9	0xbe043dd1	-0.12914206
10	0x3effd51c	0.49967277
11	0xbe96ab9b	-0.294278
12	0x3d32d7d4	0.04366286
13	0xbed6bd04	-0.41941082
14	0x3ee0a72a	0.43877536
15	0xbe1d50d8	-0.1536287
16	0x3ed90b95	0.4239165
17	0xbf877d93	-1.0585197
18	0x3e2fd72e	0.17171928
19	0xbe1ec032	-0.15503004
20	0x3e96e50f	0.29471633
21	0x3e87a66f	0.26494166
22	0x3dd9c2d9	0.10632867
23	0x3ea767d7	0.3269641

intermediate_layers.3.conv_abn.bn.weight f4 [24]
0	0xbe2e3743	-0.17013268
1	0x3f9e040c	1.2344985
2	0x3df08375	0.117438234
3	0x3f031724	0.51207185
4	0x3d52995a	0.05141578
5	0xbe969360	-0.29409313
6	0x3c83751c	0.016047053
7	0x3d897f56	0.067137405
8	0x3dcdebd0	0.10054743
9	0x3f449f38	0.7680545
10	0x3d4a6cce	0.04942017
11	0xbe9f4eb8	-0.31114745
12	0xbd9387d2	-0.0720364
13	0x3e993639	0.2992418
14	0x3f20ff3d	0.6288946
15	0xbe9fa29b	-0.31178746
16	0xbe63a79c	-0.22231907
17	0x3ed54ad5	0.41658655
18	0x3ec3ce57	0.38243362
19	0xbef4418f	-0.47706267
20	0x3f3f56b5	0.7474168
21	0xbf8b67f1	-1.0891095
22	0x3f3bb4a3	0.73322505
23	0xbdeb9a7d	-0.11504076

intermediate_layers.3.conv_abn.bn.bias f4 [24]
0	0x3e9d21e6	0.30689925
1	0xbe864508	-0.26224542
2	0xbe201b9b	-0.1563553
3	0x3cc46507	0.023973955
4	0x3eb80ffb	0.35949692
5	0x3f359f54	0.7094624
6	0xbe2b2eea	-0.16717115
7	0x3bc950c9	0.0061436635
8	0x3c871267	0.016488267
9	0x3e94aa6e	0.29036278
10	0x3e3ff7c8	0.18746865
11	0x3e770d7b	0.24126236
12	0xbdb91d53	-0.09038796
13	0xbedb42af	-0.42824313
14	0xbe32393f	-0.1740465
15	0xbdb3193b	-0.08745047
16	0x3ee5cd9f	0.4488344
17	0xbf517a40	-0.81827164
18	0xbd9f8f4c	-0.077910036
19	0x3eb41979	0.35175684
20	0x3cd1444c	0.025545262
21	0x3e4305fa	0.19045249
22	0xbe65e71f	-0.22451447
23	0x3e76e0d9	0.2410921

intermediate_layers.3.conv_abn.bn.running_mean f4 [24]
0	0xbed201ee	-0.41017097
1	0xbe254724	-0.16140419
2	0xbe63be79	-0.22240628
3	0xbe94145d	-0.28921786
4	0xbf10d40f	-0.56573576
5	0x3e15ad83	0.1461697
6	0xbf4d5896	-0.80213296
7	0xbf16b824	-0.58874726
8	0xbf60cb9d	-0.8781069
9	0xbf1d468f	-0.6143579
10	0xbea1def7	-0.3161542
11	0xbfb7ba65	-1.4353758
12	0xbee8357c	-0.45353305
13	0xbf03df4f	-0.51512617
14	0xbe69ea18	-0.22843206
15	0xbf2cd65d	-0.6751459
16	0xbf5f149a	-0.8714081
17	0xbeabb9bc	-0.33540142
18	0xbf0ec6e8	-0.55772257
19	0xbe76a6b4	-0.2408703
20	0x3effa9a8	0.49934125
21	0x3f270a63	0.65250224
22	0xbb4cbcf3	-0.0031240552
23	0xbfb84bda	-1.4398148

intermediate_layers.3.conv_abn.bn.running_var f4 [24]
0	0x3fc22b31	1.5169431
1	0x3fb7fcd2	1.437403
2	0x403c3e8a	2.941317
3	0x3fcebeb4	1.6151948
4	0x3fd74d0d	1.6820389
5	0x3fd74145	1.6816794
6	0x3fcd18cf	1.6023196
7	0x40175456	2.3645225
8	0x3fe6952f	1.8014277
9	0x4024f742	2.5775914
10	0x3f8c83aa	1.0977681
11	0x40b469da	5.6379213
12	0x3fab0f30	1.336401
13	0x3fac9987	1.3484353
14	0x400b6148	2.1778126
15	0x3fb59315	1.4185511
16	0x3fc7cccd	1.5609375
17	0x402ac107	2.6680315
18	0x3f9e738b	1.2379011
19	0x409e6672	4.9500055
20	0x40938c75	4.6108956
21	0x40e28734	7.0790043
22	0x402a22a5	2.6583645
23	0x408fc9e3	4.4933944
